SqueezeNet 100x100/SqueezeNet_IntONLY.tflite (tflite, 838824 bytes, 27 tensors)

model/dense/MatMul i1 [29, 29] scale=0.007339969 zero_point=0
00000000: e5fd 18df bebc 3316 ee0b dacd e5ff e314
00000010: 2cdc 39d9 e3f7 4020 380c c824 0edc f92e
00000020: da2e 0918 41f9 f7dd cc27 0f0d e8ae cf28
00000030: edf0 e72d d6f8 15e2 d52c ddc9 e6f1 fdf5
00000040: c912 c139 48d3 e9b7 f213 ca26 ec1f da49
00000050: ed00 1c28 0133 c9cd e412 f0fa 27f5 23ab
00000060: 13ff d326 c0c0 33b5 dee8 23f7 ffc0 1ac4
00000070: 2d38 3536 f305 000e 1e3d 2331 1708 bfc0
00000080: cb00 e600 f4d6 47e2 0f0c 0bf0 e3f5 f500
00000090: e526 f1fa 0621 30f6 e3fb 34d5 bc2a d013
000000a0: 40e7 2de7 edec ede8 35e2 fec9 03f0 dd1e
000000b0: 37cb 1e2a d6cc f3c2 cf07 eee5 eb0b f128
000000c0: 03fa ef2b dd18 2cf1 c328 240b 14ef cbf8
000000d0: 3040 c81f bceb d5fc e42c d329 30ac 1a93
000000e0: 28d8 ca44 e0cb 2d2b 043a d9a8 2336 0d09
000000f0: d014 15e2 39d4 9ad8 1bf7 1dda 14be 17fc
-0.19817916 -0.022019906 0.17615925 -0.24221897 -0.48443794 -0.49911788 0.37433842 0.16147931
-0.13211943 0.080739655 -0.2789188 -0.37433842 -0.19817916 -0.007339969 -0.2128591 0.14679937
0.32295862 -0.26423886 0.41837823 -0.2862588 -0.2128591 -0.066059716 0.469758 0.234879
0.41103825 0.088079624 -0.41103825 0.26423886 0.10275956 -0.26423886 -0.05137978 0.33763856
-0.2789188 0.33763856 0.066059716 0.17615925 0.47709796 -0.05137978 -0.066059716 -0.2568989
-0.38167837 0.2862588 0.11009953 0.09541959 -0.17615925 -0.60187745 -0.35965848 0.29359874
-0.1394594 -0.1174395 -0.18349922 0.3302986 -0.30827868 -0.05871975 0.15413934 -0.22019906
-0.31561866 0.32295862 -0.2568989 -0.4036983 -0.19083919 -0.11009953 -0.022019906 -0.080739655
-0.4036983 0.13211943 -0.46241805 0.41837823 0.5284777 -0.3302986 -0.16881928 -0.53581774
-0.10275956 0.1394594 -0.3963583 0.2789188 -0.14679937 0.22753903 -0.2789188 0.53581774
-0.1394594 0.0 0.20551912 0.29359874 0.007339969 0.37433842 -0.4036983 -0.37433842
-0.20551912 0.13211943 -0.1174395 -0.044039812 0.2862588 -0.080739655 0.2568989 -0.6238974
0.1394594 -0.007339969 -0.3302986 0.2789188 -0.469758 -0.469758 0.37433842 -0.55049765
-0.24955894 -0.17615925 0.2568989 -0.066059716 -0.007339969 -0.469758 0.19083919 -0.44039813
0.3302986 0.41103825 0.38901836 0.3963583 -0.09541959 0.036699843 0.0 0.10275956
0.22019906 0.4477381 0.2568989 0.35965848 0.16881928 0.05871975 -0.47709796 -0.469758
-0.38901836 0.0 -0.19083919 0.0 -0.088079624 -0.30827868 0.5211378 -0.22019906
0.11009953 0.088079624 0.080739655 -0.1174395 -0.2128591 -0.080739655 -0.080739655 0.0
-0.19817916 0.2789188 -0.11009953 -0.044039812 0.044039812 0.24221897 0.3523185 -0.073399685
-0.2128591 -0.036699843 0.38167837 -0.31561866 -0.49911788 0.30827868 -0.3523185 0.1394594
0.469758 -0.18349922 0.3302986 -0.18349922 -0.1394594 -0.14679937 -0.1394594 -0.17615925
0.38901836 -0.22019906 -0.014679938 -0.4036983 0.022019906 -0.1174395 -0.2568989 0.22019906
0.4036983 -0.38901836 0.22019906 0.30827868 -0.30827868 -0.38167837 -0.09541959 -0.45507807
-0.35965848 0.05137978 -0.13211943 -0.19817916 -0.15413934 0.080739655 -0.11009953 0.29359874
0.022019906 -0.044039812 -0.12477947 0.31561866 -0.2568989 0.17615925 0.32295862 -0.11009953
-0.4477381 0.29359874 0.26423886 0.080739655 0.14679937 -0.12477947 -0.38901836 -0.05871975
0.3523185 0.469758 -0.41103825 0.22753903 -0.49911788 -0.15413934 -0.31561866 -0.029359875
-0.20551912 0.32295862 -0.3302986 0.30093873 0.3523185 -0.61655736 0.19083919 -0.8000566
0.29359874 -0.29359874 -0.3963583 0.49911788 -0.234879 -0.38901836 0.3302986 0.31561866
0.029359875 0.4257182 -0.2862588 -0.64591724 0.2568989 0.3963583 0.09541959 0.066059716
-0.3523185 0.14679937 0.15413934 -0.22019906 0.41837823 -0.32295862 -0.74867684 -0.29359874
0.19817916 -0.066059716 0.2128591 -0.2789188 0.14679937 -0.48443794 0.16881928 -0.029359875

model/conv10/Conv2D i1 [29, 1, 1, 512]
00000000: 05ee eaf7 e8f9 0807 fd01 1415 fb2c 15f7
00000010: f7f8 222a 12f2 101c 19eb ed07 4c07 0315
00000020: 03a4 0f02 0f10 f616 0c49 fdf6 0502 ecff
00000030: 64fc 030e 3f0f f7fc 0bec 0810 0af3 0cee
00000040: 10f8 08fc 130d f600 1204 04f7 0103 ef0e
00000050: dffb faf0 2512 14f3 1f08 18f3 f718 0ceb
00000060: f717 1207 f406 0101 0904 17f8 0905 0a0e
00000070: f703 0bed f807 ebf6 10e5 ef0b 0a1a 0c0d
00000080: 06f1 f6fb 0615 10f3 f60f f700 0ced 0c08
00000090: 18fc 03f6 f30a 0675 0fee 0dec 0610 0322
000000a0: 01fb faf4 0e0a ee15 10ed 1efb 2711 12f6
000000b0: ee00 f911 fdf6 08f0 ebe3 f2fa f7fe 15f4
000000c0: ff39 ecf0 f5f2 0b09 ff0c f600 f516 faf0
000000d0: 0c0d 0af7 0f0d 0c01 f911 0d0a 1516 ee0d
000000e0: fe16 2457 01fa 0a04 1115 edfb f1f5 0afd
000000f0: 04fb 051b 020a 0f21 2c06 e70d 08f7 fafb
5 -18 -22 -9 -24 -7 8 7
-3 1 20 21 -5 44 21 -9
-9 -8 34 42 18 -14 16 28
25 -21 -19 7 76 7 3 21
3 -92 15 2 15 16 -10 22
12 73 -3 -10 5 2 -20 -1
100 -4 3 14 63 15 -9 -4
11 -20 8 16 10 -13 12 -18
16 -8 8 -4 19 13 -10 0
18 4 4 -9 1 3 -17 14
-33 -5 -6 -16 37 18 20 -13
31 8 24 -13 -9 24 12 -21
-9 23 18 7 -12 6 1 1
9 4 23 -8 9 5 10 14
-9 3 11 -19 -8 7 -21 -10
16 -27 -17 11 10 26 12 13
6 -15 -10 -5 6 21 16 -13
-10 15 -9 0 12 -19 12 8
24 -4 3 -10 -13 10 6 117
15 -18 13 -20 6 16 3 34
1 -5 -6 -12 14 10 -18 21
16 -19 30 -5 39 17 18 -10
-18 0 -7 17 -3 -10 8 -16
-21 -29 -14 -6 -9 -2 21 -12
-1 57 -20 -16 -11 -14 11 9
-1 12 -10 0 -11 22 -6 -16
12 13 10 -9 15 13 12 1
-7 17 13 10 21 22 -18 13
-2 22 36 87 1 -6 10 4
17 21 -19 -5 -15 -11 10 -3
4 -5 5 27 2 10 15 33
44 6 -25 13 8 -9 -6 -5

model/fire9/expand3x3/Conv2D i1 [256, 3, 3, 64]
00000000: 57a8 5c1f c7cc f035 ec3c 0966 12f6 5024
00000010: bfd8 28eb d012 2be4 c712 f3c5 efa2 0534
00000020: bf3a d3c9 23f4 b337 e5d0 12f8 fbec 022a
00000030: f442 c109 4dd1 114e ed0e c3dc b5a9 6704
00000040: 2bbc 670a de0d 132c f439 282c 16fd 55ff
00000050: c0b8 37e3 bace 0cf0 ede7 10d0 f9a2 1532
00000060: c31a f1ad 1adf 932d cdcb 29e2 bc02 f6fd
00000070: 073c a205 3fd1 0673 da00 bdd0 eecf 47d8
00000080: 3ecb 6810 d813 1639 1a39 1e41 2100 4800
00000090: e690 40d1 99c6 11dd f80c 15c7 24a8 0e47
000000a0: dd29 cab6 30d3 af18 a6d9 38d4 bcf7 e50b
000000b0: e553 abfa 39c6 2777 ae09 edd1 08c9 6bc9
000000c0: 22d9 2418 ffc8 f4fd 17e6 f30d 0fdb 21f8
000000d0: e0f3 1214 f932 111e dac4 f8fd f602 130b
000000e0: dfe0 cab7 0b11 caec c6d9 f1fb c319 e71b
000000f0: 0ff8 a909 17de 1759 dfef e3c0 d7f5 1fe3
87 -88 92 31 -57 -52 -16 53
-20 60 9 102 18 -10 80 36
-65 -40 40 -21 -48 18 43 -28
-57 18 -13 -59 -17 -94 5 52
-65 58 -45 -55 35 -12 -77 55
-27 -48 18 -8 -5 -20 2 42
-12 66 -63 9 77 -47 17 78
-19 14 -61 -36 -75 -87 103 4
43 -68 103 10 -34 13 19 44
-12 57 40 44 22 -3 85 -1
-64 -72 55 -29 -70 -50 12 -16
-19 -25 16 -48 -7 -94 21 50
-61 26 -15 -83 26 -33 -109 45
-51 -53 41 -30 -68 2 -10 -3
7 60 -94 5 63 -47 6 115
-38 0 -67 -48 -18 -49 71 -40
62 -53 104 16 -40 19 22 57
26 57 30 65 33 0 72 0
-26 -112 64 -47 -103 -58 17 -35
-8 12 21 -57 36 -88 14 71
-35 41 -54 -74 48 -45 -81 24
-90 -39 56 -44 -68 -9 -27 11
-27 83 -85 -6 57 -58 39 119
-82 9 -19 -47 8 -55 107 -55
34 -39 36 24 -1 -56 -12 -3
23 -26 -13 13 15 -37 33 -8
-32 -13 18 20 -7 50 17 30
-38 -60 -8 -3 -10 2 19 11
-33 -32 -54 -73 11 17 -54 -20
-58 -39 -15 -5 -61 25 -25 27
15 -8 -87 9 23 -34 23 89
-33 -17 -29 -64 -41 -11 31 -29

model/fire9/expand1x1/Conv2D i1 [256, 1, 1, 64]
00000000: e5f2 e3f9 e10c c4ea d1f1 d11a 0704 fb01
00000010: dfe1 f4da f617 11c8 eeef 07fe 7f06 0bcc
00000020: f6f2 e8e8 05da f8db 1cfa 4a02 dbd2 dc0d
00000030: fbfc de0f 30fa 15e1 1d05 e2c6 07fe e809
00000040: fdd7 17d1 0120 71eb c8ba e8da 28b4 bcf5
00000050: d909 21e9 d459 dde4 e3b5 00ed 5d2c d93a
00000060: 0ef9 cc09 cbe0 dbd9 ef1c 6dd6 ecc0 0c9a
00000070: c2f3 33d1 2a04 81ee 1afb f6c0 e5ff 22d1
00000080: 32e4 d0ba c0e6 e2d3 b1f6 ffd2 d308 fdd5
00000090: b167 401a acfa cef6 b4ee c3e1 f605 9ed5
000000a0: 7fe9 a59b 6e3d 15e2 2af4 e6bd 9051 30f7
000000b0: 9b41 fb2d f1b5 eedf 0abc c829 03d4 e1f3
000000c0: 2e08 1004 fb8b 1fee f5df 01c3 12e6 8103
000000d0: 2214 daa8 faf3 f4db f7f4 fef6 ebf6 e84d
000000e0: e758 1125 d71f 1a09 0808 0c06 fae8 e8ed
000000f0: f9f4 63fc 76fa 9bf4 f3ad 02ed fbf6 09e4
-27 -14 -29 -7 -31 12 -60 -22
-47 -15 -47 26 7 4 -5 1
-33 -31 -12 -38 -10 23 17 -56
-18 -17 7 -2 127 6 11 -52
-10 -14 -24 -24 5 -38 -8 -37
28 -6 74 2 -37 -46 -36 13
-5 -4 -34 15 48 -6 21 -31
29 5 -30 -58 7 -2 -24 9
-3 -41 23 -47 1 32 113 -21
-56 -70 -24 -38 40 -76 -68 -11
-39 9 33 -23 -44 89 -35 -28
-29 -75 0 -19 93 44 -39 58
14 -7 -52 9 -53 -32 -37 -39
-17 28 109 -42 -20 -64 12 -102
-62 -13 51 -47 42 4 -127 -18
26 -5 -10 -64 -27 -1 34 -47
50 -28 -48 -70 -64 -26 -30 -45
-79 -10 -1 -46 -45 8 -3 -43
-79 103 64 26 -84 -6 -50 -10
-76 -18 -61 -31 -10 5 -98 -43
127 -23 -91 -101 110 61 21 -30
42 -12 -26 -67 -112 81 48 -9
-101 65 -5 45 -15 -75 -18 -33
10 -68 -56 41 3 -44 -31 -13
46 8 16 4 -5 -117 31 -18
-11 -33 1 -61 18 -26 -127 3
34 20 -38 -88 -6 -13 -12 -37
-9 -12 -2 -10 -21 -10 -24 77
-25 88 17 37 -41 31 26 9
8 8 12 6 -6 -24 -24 -19
-7 -12 99 -4 118 -6 -101 -12
-13 -83 2 -19 -5 -10 9 -28

model/fire9/squeeze1x1/Conv2D i1 [64, 1, 1, 512]
00000000: 0ff6 1b06 2bfd f02d 0cc7 03d9 f9e2 3603
00000010: effc 3b29 0e50 2101 020d 0826 0cea 29f2
00000020: 01de 0802 19f7 1a0d 440f 14f5 0c16 f62e
00000030: 1df6 1a1f fa1c 0ae1 0a04 e73c 21fe 6bf8
00000040: fee0 0305 0408 0a1b 0d05 f509 e316 dd0f
00000050: 15e6 0814 f311 0005 09ee e020 e636 04f8
00000060: 031a ead4 1507 ede7 163a 00fc 1107 f138
00000070: 4214 f80e 0ce4 22df 28ff 0210 0a14 e33d
00000080: 0025 29de fafc 0a3b 0701 fb08 f905 0219
00000090: ebcc 4c0d b813 1403 f8e0 e6f6 2b07 e6fc
000000a0: 35ef 0502 dd12 1a05 f9e8 fcff dd1e 08fb
000000b0: 06f4 3314 d849 2515 c7e3 002a ff06 f918
000000c0: 20ee 04e9 e223 0e14 02e7 15f2 f502 0c08
000000d0: 0718 3ef5 fded 0e0c fdfe 26fe f51e dff9
000000e0: e825 e707 27f6 ee17 edd1 0301 2918 c429
000000f0: f45f 0afd 0c23 04ee e219 ff10 06de ffe0
15 -10 27 6 43 -3 -16 45
12 -57 3 -39 -7 -30 54 3
-17 -4 59 41 14 80 33 1
2 13 8 38 12 -22 41 -14
1 -34 8 2 25 -9 26 13
68 15 20 -11 12 22 -10 46
29 -10 26 31 -6 28 10 -31
10 4 -25 60 33 -2 107 -8
-2 -32 3 5 4 8 10 27
13 5 -11 9 -29 22 -35 15
21 -26 8 20 -13 17 0 5
9 -18 -32 32 -26 54 4 -8
3 26 -22 -44 21 7 -19 -25
22 58 0 -4 17 7 -15 56
66 20 -8 14 12 -28 34 -33
40 -1 2 16 10 20 -29 61
0 37 41 -34 -6 -4 10 59
7 1 -5 8 -7 5 2 25
-21 -52 76 13 -72 19 20 3
-8 -32 -26 -10 43 7 -26 -4
53 -17 5 2 -35 18 26 5
-7 -24 -4 -1 -35 30 8 -5
6 -12 51 20 -40 73 37 21
-57 -29 0 42 -1 6 -7 24
32 -18 4 -23 -30 35 14 20
2 -25 21 -14 -11 2 12 8
7 24 62 -11 -3 -19 14 12
-3 -2 38 -2 -11 30 -33 -7
-24 37 -25 7 39 -10 -18 23
-19 -47 3 1 41 24 -60 41
-12 95 10 -3 12 35 4 -18
-30 25 -1 16 6 -34 -1 -32

model/fire8/expand3x3/Conv2D i1 [256, 3, 3, 64]
00000000: 26eb e635 68cd 4131 05eb 0fea 3603 cae1
00000010: 1dff c1ad 1325 be0d fff8 5cd1 ec05 0ce7
00000020: 03d5 02f2 fb25 81cf 072b e420 ef4d fee1
00000030: 1806 111e 2bd3 f30b fa29 dfeb 0235 d4d7
00000040: fef7 d346 48dd 2e08 10cc 21cf 2620 d3f8
00000050: 13d7 bcca e529 9800 00ed ddb9 cd0f e5e8
00000060: 07c5 ef1b 1a35 bee9 e62c f614 ee28 1807
00000070: 2f02 e9f5 12fa f0fe 043c f124 fe26 c5cc
00000080: bbe8 e760 41db 1322 29d2 1bd7 2e22 bbeb
00000090: 0cf2 f9be fd50 dc29 fbeb 26b9 e0e6 f3e7
000000a0: 0cf5 e043 0d3b b5e3 fb14 0710 cf44 10fd
000000b0: 2cf2 1c06 12e8 eef2 0c2c eb17 6331 e1d4
000000c0: 09eb fa2c 650d 29fa 0c47 2502 ff16 e1d2
000000d0: e43e fcea 0337 c70c fded 54aa d2e2 20e9
000000e0: 10bc 05eb e5fd 8b01 f21e 9ff4 184b 1bd2
000000f0: 2ff0 042d fb01 c303 00f4 e10f 0df9 ecaa
38 -21 -26 53 104 -51 65 49
5 -21 15 -22 54 3 -54 -31
29 -1 -63 -83 19 37 -66 13
-1 -8 92 -47 -20 5 12 -25
3 -43 2 -14 -5 37 -127 -49
7 43 -28 32 -17 77 -2 -31
24 6 17 30 43 -45 -13 11
-6 41 -33 -21 2 53 -44 -41
-2 -9 -45 70 72 -35 46 8
16 -52 33 -49 38 32 -45 -8
19 -41 -68 -54 -27 41 -104 0
0 -19 -35 -71 -51 15 -27 -24
7 -59 -17 27 26 53 -66 -23
-26 44 -10 20 -18 40 24 7
47 2 -23 -11 18 -6 -16 -2
4 60 -15 36 -2 38 -59 -52
-69 -24 -25 96 65 -37 19 34
41 -46 27 -41 46 34 -69 -21
12 -14 -7 -66 -3 80 -36 41
-5 -21 38 -71 -32 -26 -13 -25
12 -11 -32 67 13 59 -75 -29
-5 20 7 16 -49 68 16 -3
44 -14 28 6 18 -24 -18 -14
12 44 -21 23 99 49 -31 -44
9 -21 -6 44 101 13 41 -6
12 71 37 2 -1 22 -31 -46
-28 62 -4 -22 3 55 -57 12
-3 -19 84 -86 -46 -30 32 -23
16 -68 5 -21 -27 -3 -117 1
-14 30 -97 -12 24 75 27 -46
47 -16 4 45 -5 1 -61 3
0 -12 -31 15 13 -7 -20 -86

model/fire8/expand1x1/Conv2D i1 [256, 1, 1, 64]
00000000: f20a fec9 d31c 0421 ef9f edd8 70fa e5dc
00000010: 3ffc c81f 03d6 2e05 f2e5 fc1a 7fb7 a810
00000020: 242b b521 d2da e70a 1623 531e d1ea f51c
00000030: e2b6 fd0c 53db 221a dcfc fe26 31ec f8fb
00000040: edb9 fef4 ac0a b83d fb18 f17f 06ff fb0c
00000050: f207 3f07 ef3f fa3e 4509 b5de fd66 6648
00000060: 13d6 b3fd 5ac5 d115 bd73 17c2 cca8 e77a
00000070: 0a1d c0a9 ea0f 161c 16bf d8d7 b421 d898
00000080: 0437 d1e1 2ff6 f8ff 0e12 0838 0218 0340
00000090: 4252 c534 f6f2 32ec 1bb3 ca70 9201 29b2
000000a0: 00d7 e025 0636 1628 e4ac e500 b52d 4735
000000b0: defb 01e8 d01a f4f0 38b2 81ef f231 990d
000000c0: 0e07 f21a 1b00 012e 0021 410e 19ee c9f4
000000d0: 8128 0021 07bb 2f0e 1410 f915 0713 4b15
000000e0: 31bf fcfd fbf3 0319 c8fe 1afc 08d3 1400
000000f0: 34dc f5c2 fac1 edfc cc33 0c04 1df0 deea
-14 10 -2 -55 -45 28 4 33
-17 -97 -19 -40 112 -6 -27 -36
63 -4 -56 31 3 -42 46 5
-14 -27 -4 26 127 -73 -88 16
36 43 -75 33 -46 -38 -25 10
22 35 83 30 -47 -22 -11 28
-30 -74 -3 12 83 -37 34 26
-36 -4 -2 38 49 -20 -8 -5
-19 -71 -2 -12 -84 10 -72 61
-5 24 -15 127 6 -1 -5 12
-14 7 63 7 -17 63 -6 62
69 9 -75 -34 -3 102 102 72
19 -42 -77 -3 90 -59 -47 21
-67 115 23 -62 -52 -88 -25 122
10 29 -64 -87 -22 15 22 28
22 -65 -40 -41 -76 33 -40 -104
4 55 -47 -31 47 -10 -8 -1
14 18 8 56 2 24 3 64
66 82 -59 52 -10 -14 50 -20
27 -77 -54 112 -110 1 41 -78
0 -41 -32 37 6 54 22 40
-28 -84 -27 0 -75 45 71 53
-34 -5 1 -24 -48 26 -12 -16
56 -78 -127 -17 -14 49 -103 13
14 7 -14 26 27 0 1 46
0 33 65 14 25 -18 -55 -12
-127 40 0 33 7 -69 47 14
20 16 -7 21 7 19 75 21
49 -65 -4 -3 -5 -13 3 25
-56 -2 26 -4 8 -45 20 0
52 -36 -11 -62 -6 -63 -19 -4
-52 51 12 4 29 -16 -34 -22

model/fire8/squeeze1x1/Conv2D i1 [64, 1, 1, 384]
00000000: ef20 e4f5 0feb 0e07 1017 f106 fb13 ea0c
00000010: fe11 0702 fcdd fc1e d219 0dfa f7ed f102
00000020: 08f3 0229 17f3 f914 d838 fbe6 eb23 edf7
00000030: 02f3 ea04 fb2b 1901 02e2 d10f 17ff fd0e
00000040: edfe f607 1603 e4fa 0715 07fd 0eee edee
00000050: f5e8 03f6 1912 fa0d f104 f313 27fb ffe2
00000060: e6ec 11f9 0d1e f615 0c06 020e f6fb 0b08
00000070: 0911 05e1 16e8 160f f1ee f80e ef12 f3fd
00000080: 04f4 0314 11ec 0ae4 f807 f612 fff7 ede4
00000090: f002 04ff e112 0df4 11f4 0b00 f1f7 03fc
000000a0: f9f1 2016 020c 0f13 0bfc 09ff 1a05 fd04
000000b0: fc0d 000d 01ef ddfe 0722 1707 0efb 0ae7
000000c0: 1aea 1aee fb0e 0d10 0928 f5fe 12dc ed1a
000000d0: defd 0207 fe2f f914 dcf0 ec03 d4ea 06f2
000000e0: f511 fbe7 f720 0102 f9d6 0900 18db eeea
000000f0: 1edc 2c0f 0706 0008 f6fa 05e3 04f1 09d5
-17 32 -28 -11 15 -21 14 7
16 23 -15 6 -5 19 -22 12
-2 17 7 2 -4 -35 -4 30
-46 25 13 -6 -9 -19 -15 2
8 -13 2 41 23 -13 -7 20
-40 56 -5 -26 -21 35 -19 -9
2 -13 -22 4 -5 43 25 1
2 -30 -47 15 23 -1 -3 14
-19 -2 -10 7 22 3 -28 -6
7 21 7 -3 14 -18 -19 -18
-11 -24 3 -10 25 18 -6 13
-15 4 -13 19 39 -5 -1 -30
-26 -20 17 -7 13 30 -10 21
12 6 2 14 -10 -5 11 8
9 17 5 -31 22 -24 22 15
-15 -18 -8 14 -17 18 -13 -3
4 -12 3 20 17 -20 10 -28
-8 7 -10 18 -1 -9 -19 -28
-16 2 4 -1 -31 18 13 -12
17 -12 11 0 -15 -9 3 -4
-7 -15 32 22 2 12 15 19
11 -4 9 -1 26 5 -3 4
-4 13 0 13 1 -17 -35 -2
7 34 23 7 14 -5 10 -25
26 -22 26 -18 -5 14 13 16
9 40 -11 -2 18 -36 -19 26
-34 -3 2 7 -2 47 -7 20
-36 -16 -20 3 -44 -22 6 -14
-11 17 -5 -25 -9 32 1 2
-7 -42 9 0 24 -37 -18 -22
30 -36 44 15 7 6 0 8
-10 -6 5 -29 4 -15 9 -43

model/fire7/expand3x3/Conv2D i1 [192, 3, 3, 48]
00000000: 4f03 e908 370a 1ff5 2802 f62a 1cfe 0209
00000010: 0b14 2913 f526 0efb 13f7 eee1 d0f8 1508
00000020: 27f2 0a0b 07e5 1104 fe1a fbe8 f2f9 5b04
00000030: fffa fe06 2bf4 0bd0 1d2b ee2c 19ef c7fc
00000040: 03e7 0a1f dee4 00d4 f905 b61d 07dd e42c
00000050: cbeb d4e0 11de 7011 15e0 bdd3 1906 d7f9
00000060: 0837 27e7 2700 02f3 1df5 fed7 f3fa 0aee
00000070: edeb 0cf4 0ce8 f1e7 0b01 e322 e806 0b01
00000080: 18c5 18ea 10d6 17ee fa2e ddff 13e9 42fd
00000090: edde cfec 1a12 16ed ec29 ef3c fb25 c3e1
000000a0: fbe8 0e22 fe27 f9f9 fadc e6d5 000a e8fd
000000b0: 1d00 2013 0102 f3fa dbdb fef0 edf5 0e26
000000c0: bac0 cff6 d011 08d0 fa0d e358 f80f 81d1
000000d0: 36e7 e150 0dd7 2de4 bac2 7b15 2501 b673
000000e0: c918 afba ec0f 0bfb 1b96 aa1c e921 9a03
000000f0: 1cfd 4005 fce8 fc07 08fe fdf7 fa12 e114
79 3 -23 8 55 10 31 -11
40 2 -10 42 28 -2 2 9
11 20 41 19 -11 38 14 -5
19 -9 -18 -31 -48 -8 21 8
39 -14 10 11 7 -27 17 4
-2 26 -5 -24 -14 -7 91 4
-1 -6 -2 6 43 -12 11 -48
29 43 -18 44 25 -17 -57 -4
3 -25 10 31 -34 -28 0 -44
-7 5 -74 29 7 -35 -28 44
-53 -21 -44 -32 17 -34 112 17
21 -32 -67 -45 25 6 -41 -7
8 55 39 -25 39 0 2 -13
29 -11 -2 -41 -13 -6 10 -18
-19 -21 12 -12 12 -24 -15 -25
11 1 -29 34 -24 6 11 1
24 -59 24 -22 16 -42 23 -18
-6 46 -35 -1 19 -23 66 -3
-19 -34 -49 -20 26 18 22 -19
-20 41 -17 60 -5 37 -61 -31
-5 -24 14 34 -2 39 -7 -7
-6 -36 -26 -43 0 10 -24 -3
29 0 32 19 1 2 -13 -6
-37 -37 -2 -16 -19 -11 14 38
-70 -64 -49 -10 -48 17 8 -48
-6 13 -29 88 -8 15 -127 -47
54 -25 -31 80 13 -41 45 -28
-70 -62 123 21 37 1 -74 115
-55 24 -81 -70 -20 15 11 -5
27 -106 -86 28 -23 33 -102 3
28 -3 64 5 -4 -24 -4 7
8 -2 -3 -9 -6 18 -31 20

model/fire7/expand1x1/Conv2D i1 [192, 1, 1, 48]
00000000: 21f4 0ce1 1e08 28f9 f4ff 10af f704 f8ea
00000010: 06ee 08f9 eded f7f6 7fec f808 ecfc 1002
00000020: 3406 e1fd f622 09d5 130f 17e0 cfe9 d502
00000030: 052b 18dd 6ae2 0907 fcf1 f8f3 f815 4cfa
00000040: 20f4 10d1 b105 1a81 b8d3 d3d2 c7e8 f83b
00000050: b612 fdb3 1d04 f9f8 0be5 f96e 1a01 46f2
00000060: 38bb d0df c838 02e8 d8bf c657 e0ec 17e3
00000070: 07bb 2dec d512 e127 cfc2 2ded 2bee 2c31
00000080: eccf d251 22d0 0dfa 7fff 05ee e807 d5e7
00000090: b7df 020d f1f5 dfd6 fcfb d104 04e5 10ee
000000a0: ac00 0910 0ed6 0ffb 26cf cd30 f6c6 fd7f
000000b0: d0c8 02d2 4207 ea1d 1b13 eb6b d323 c9fc
000000c0: dede 0713 0b02 e4f2 d6c7 f57d 1de0 7fff
000000d0: c1e9 0ff2 1bdd 3af5 11cf 01fc f3d6 d5f9
000000e0: b032 fef4 15f0 18f1 c2c6 cb12 d72c 71e0
000000f0: 38cb ded0 0727 ce0a 0704 f7e3 f1c6 e9d4
33 -12 12 -31 30 8 40 -7
-12 -1 16 -81 -9 4 -8 -22
6 -18 8 -7 -19 -19 -9 -10
127 -20 -8 8 -20 -4 16 2
52 6 -31 -3 -10 34 9 -43
19 15 23 -32 -49 -23 -43 2
5 43 24 -35 106 -30 9 7
-4 -15 -8 -13 -8 21 76 -6
32 -12 16 -47 -79 5 26 -127
-72 -45 -45 -46 -57 -24 -8 59
-74 18 -3 -77 29 4 -7 -8
11 -27 -7 110 26 1 70 -14
56 -69 -48 -33 -56 56 2 -24
-40 -65 -58 87 -32 -20 23 -29
7 -69 45 -20 -43 18 -31 39
-49 -62 45 -19 43 -18 44 49
-20 -49 -46 81 34 -48 13 -6
127 -1 5 -18 -24 7 -43 -25
-73 -33 2 13 -15 -11 -33 -42
-4 -5 -47 4 4 -27 16 -18
-84 0 9 16 14 -42 15 -5
38 -49 -51 48 -10 -58 -3 127
-48 -56 2 -46 66 7 -22 29
27 19 -21 107 -45 35 -55 -4
-34 -34 7 19 11 2 -28 -14
-42 -57 -11 125 29 -32 127 -1
-63 -23 15 -14 27 -35 58 -11
17 -49 1 -4 -13 -42 -43 -7
-80 50 -2 -12 21 -16 24 -15
-62 -58 -53 18 -41 44 113 -32
56 -53 -34 -48 7 39 -50 10
7 4 -9 -29 -15 -58 -23 -44

model/fire7/squeeze1x1/Conv2D i1 [48, 1, 1, 384]
00000000: f914 10f7 39ff faf7 2ce5 2ffb dd22 d5dd
00000010: 08ea 36ea d304 09ea fbed bc18 b7e6 e02e
00000020: 2be3 bc45 dc01 eae0 dbf2 3ddf f10a 21fc
00000030: 2021 16ed 0a17 adee b72b 0b0b e03c 021b
00000040: 0517 28dc fa03 f4ea 2ef5 081f f234 e520
00000050: 46f4 f118 29b7 0ec6 fb1c ebe7 43dd 1fce
00000060: 0c05 fe00 e80d d918 08e6 ea0c f3e8 0b0d
00000070: ffec e90d ffda 19e8 0233 e229 2ddd 0d38
00000080: 07fe 1aea e7f9 e2f9 1008 0b06 0001 f6d2
00000090: ea0a f13e e900 fa22 0728 dfe7 17ef f3ec
000000a0: f8cc 0fe9 9ff9 da18 070c 0936 1412 2bc8
000000b0: fbee faf6 1610 eec7 11fc 0fe6 f8e4 0d17
000000c0: 22f8 17f3 2a23 00fa f210 221b dd03 1221
000000d0: d9d8 e109 f8df 0526 54fb 3cc9 dc06 e60d
000000e0: eefd ba26 09f6 12fa 097f 0808 1717 e712
000000f0: c2e0 c83c ef02 210d c92e 0c0a 0608 fb35
-7 20 16 -9 57 -1 -6 -9
44 -27 47 -5 -35 34 -43 -35
8 -22 54 -22 -45 4 9 -22
-5 -19 -68 24 -73 -26 -32 46
43 -29 -68 69 -36 1 -22 -32
-37 -14 61 -33 -15 10 33 -4
32 33 22 -19 10 23 -83 -18
-73 43 11 11 -32 60 2 27
5 23 40 -36 -6 3 -12 -22
46 -11 8 31 -14 52 -27 32
70 -12 -15 24 41 -73 14 -58
-5 28 -21 -25 67 -35 31 -50
12 5 -2 0 -24 13 -39 24
8 -26 -22 12 -13 -24 11 13
-1 -20 -23 13 -1 -38 25 -24
2 51 -30 41 45 -35 13 56
7 -2 26 -22 -25 -7 -30 -7
16 8 11 6 0 1 -10 -46
-22 10 -15 62 -23 0 -6 34
7 40 -33 -25 23 -17 -13 -20
-8 -52 15 -23 -97 -7 -38 24
7 12 9 54 20 18 43 -56
-5 -18 -6 -10 22 16 -18 -57
17 -4 15 -26 -8 -28 13 23
34 -8 23 -13 42 35 0 -6
-14 16 34 27 -35 3 18 33
-39 -40 -31 9 -8 -33 5 38
84 -5 60 -55 -36 6 -26 13
-18 -3 -70 38 9 -10 18 -6
9 127 8 8 23 23 -25 18
-62 -32 -56 60 -17 2 33 13
-55 46 12 10 6 8 -5 53

model/fire6/expand3x3/Conv2D i1 [192, 3, 3, 48]
00000000: 0121 fbea 15d9 e5fd c61a 36dc fa25 eef4
00000010: 0807 0df0 02fa fc24 e004 e7c8 0400 0c0a
00000020: f2fc ef06 1c04 0d13 eae0 020a e6fd 2b1e
00000030: d2c7 f8d3 0b13 1302 7f47 03c3 eb10 2efe
00000040: d4bb f2f9 e8ca d3cf 11ee c8c2 e8f0 ede0
00000050: 0d11 3eff 2116 4ffa e2c1 eebf c3fd 1103
00000060: ece3 eaf8 0317 ad1d 35fa 0d12 0929 31f1
00000070: 202c f100 08de dfeb 08d3 e3ea f9e6 d9f8
00000080: 0a05 57cf dfc8 0138 f0e0 00e7 0301 00fa
00000090: e9ee 10cf 0dfe 7ef9 ce1a fec6 f7db ec18
000000a0: d6f1 1602 f9eb 00f0 f7fc d8da e70b 09e1
000000b0: da0d fa0b 102e f104 f3dd e2dd ec0c f908
000000c0: 05ff 00e7 d505 63f9 3404 1ada eada 2ae8
000000d0: d2c5 edff 06c8 d6d7 fcee dede b2e5 01dc
000000e0: 2ae1 1d01 ea14 16c1 29cd b7d8 ea4b f40e
000000f0: 0d16 ecfc f41f 300c f605 33ef 1812 07d7
1 33 -5 -22 21 -39 -27 -3
-58 26 54 -36 -6 37 -18 -12
8 7 13 -16 2 -6 -4 36
-32 4 -25 -56 4 0 12 10
-14 -4 -17 6 28 4 13 19
-22 -32 2 10 -26 -3 43 30
-46 -57 -8 -45 11 19 19 2
127 71 3 -61 -21 16 46 -2
-44 -69 -14 -7 -24 -54 -45 -49
17 -18 -56 -62 -24 -16 -19 -32
13 17 62 -1 33 22 79 -6
-30 -63 -18 -65 -61 -3 17 3
-20 -29 -22 -8 3 23 -83 29
53 -6 13 18 9 41 49 -15
32 44 -15 0 8 -34 -33 -21
8 -45 -29 -22 -7 -26 -39 -8
10 5 87 -49 -33 -56 1 56
-16 -32 0 -25 3 1 0 -6
-23 -18 16 -49 13 -2 126 -7
-50 26 -2 -58 -9 -37 -20 24
-42 -15 22 2 -7 -21 0 -16
-9 -4 -40 -38 -25 11 9 -31
-38 13 -6 11 16 46 -15 4
-13 -35 -30 -35 -20 12 -7 8
5 -1 0 -25 -43 5 99 -7
52 4 26 -38 -22 -38 42 -24
-46 -59 -19 -1 6 -56 -42 -41
-4 -18 -34 -34 -78 -27 1 -36
42 -31 29 1 -22 20 22 -63
41 -51 -73 -40 -22 75 -12 14
13 22 -20 -4 -12 31 48 12
-10 5 51 -17 24 18 7 -41

model/fire6/expand1x1/Conv2D i1 [192, 1, 1, 48]
00000000: 02d5 b1f1 efcb f0e5 dcb6 1132 32e7 7fc0
00000010: dffd 27d0 3d3c 9df0 c4b1 d71d f2ec 30f1
00000020: 1739 fa1d 1106 1b07 2f0f dc18 1900 00cc
00000030: ff54 f8ee 57d6 d1cc 30dc dbc4 21f1 5db9
00000040: 1619 12d4 b000 e6f8 c56f f6cf f70e 9bdc
00000050: 30dd 2f93 0e05 bcf8 86fd 7f17 c0fa 0129
00000060: a1dc e3ec d0f7 fdfa ff0f 1d33 a940 f0c0
00000070: b4dc 08f5 535e 31cb 2a1f f73b b3fe 010c
00000080: 400e 1a14 ba21 c7c6 4207 c922 065a 81dd
00000090: 0ddf d747 d10c ed02 d515 6dfb db49 0422
000000a0: b8f7 e6d8 3c17 2855 f810 28e6 04f7 fe0a
000000b0: befd 15cc 86d1 e29f df5f 7fa9 20fd dc5a
000000c0: de21 dac6 f1b5 57c3 58d3 28c5 e348 cff5
000000d0: 2730 c7a8 4f18 18f1 0d22 1283 13eb d8d4
000000e0: e1f7 09fd e45f 7481 c80c 445c 95ea bbcd
000000f0: 162d 0103 7fec f41a 092b 2c11 daf5 89fb
2 -43 -79 -15 -17 -53 -16 -27
-36 -74 17 50 50 -25 127 -64
-33 -3 39 -48 61 60 -99 -16
-60 -79 -41 29 -14 -20 48 -15
23 57 -6 29 17 6 27 7
47 15 -36 24 25 0 0 -52
-1 84 -8 -18 87 -42 -47 -52
48 -36 -37 -60 33 -15 93 -71
22 25 18 -44 -80 0 -26 -8
-59 111 -10 -49 -9 14 -101 -36
48 -35 47 -109 14 5 -68 -8
-122 -3 127 23 -64 -6 1 41
-95 -36 -29 -20 -48 -9 -3 -6
-1 15 29 51 -87 64 -16 -64
-76 -36 8 -11 83 94 49 -53
42 31 -9 59 -77 -2 1 12
64 14 26 20 -70 33 -57 -58
66 7 -55 34 6 90 -127 -35
13 -33 -41 71 -47 12 -19 2
-43 21 109 -5 -37 73 4 34
-72 -9 -26 -40 60 23 40 85
-8 16 40 -26 4 -9 -2 10
-66 -3 21 -52 -122 -47 -30 -97
-33 95 127 -87 32 -3 -36 90
-34 33 -38 -58 -15 -75 87 -61
88 -45 40 -59 -29 72 -49 -11
39 48 -57 -88 79 24 24 -15
13 34 18 -125 19 -21 -40 -44
-31 -9 9 -3 -28 95 116 -127
-56 12 68 92 -107 -22 -69 -51
22 45 1 3 127 -20 -12 26
9 43 44 17 -38 -11 -119 -5

model/fire6/squeeze1x1/Conv2D i1 [48, 1, 1, 256]
00000000: 03d2 0cd9 1524 f3ff d200 26f9 e00e 0521
00000010: 32f9 5e11 06ff 0ee9 f9e8 11e9 d20a 1129
00000020: e810 fa27 fffa bad1 e700 d50f c6f8 09d7
00000030: 04da 0c1d ef10 f8d6 02ef ed0a 08f2 2feb
00000040: ee24 24f1 db1c 2af3 06dd 14e0 1f09 1c05
00000050: dd07 fcdb fd07 0111 da11 21fb 12fc 290d
00000060: dd29 08df ca2a e3d4 152e f7ff 7fe1 fc00
00000070: 1bfc fdf2 ecf9 0608 0800 011a 07f0 e824
00000080: 0613 fff4 ea19 f602 311e be42 0220 f516
00000090: f336 c8d2 6420 da07 ccde f0e4 26fa 34e9
000000a0: eb17 4559 24d5 ecd8 05ee 072a db32 6f13
000000b0: fcdf fa12 e8d3 c22f 10d8 ebfd 17e2 fe07
000000c0: 1bf6 03f4 110b 4425 de2b 6d13 03d6 0e26
000000d0: 3e0f d2f2 060b e232 f0fe 12e2 05f5 b7e4
000000e0: 24fc eb08 fde0 dc10 0b15 0422 fd05 0f26
000000f0: 0c1b fb10 2609 ee3f e234 e3dc e926 d3f4
3 -46 12 -39 21 36 -13 -1
-46 0 38 -7 -32 14 5 33
50 -7 94 17 6 -1 14 -23
-7 -24 17 -23 -46 10 17 41
-24 16 -6 39 -1 -6 -70 -47
-25 0 -43 15 -58 -8 9 -41
4 -38 12 29 -17 16 -8 -42
2 -17 -19 10 8 -14 47 -21
-18 36 36 -15 -37 28 42 -13
6 -35 20 -32 31 9 28 5
-35 7 -4 -37 -3 7 1 17
-38 17 33 -5 18 -4 41 13
-35 41 8 -33 -54 42 -29 -44
21 46 -9 -1 127 -31 -4 0
27 -4 -3 -14 -20 -7 6 8
8 0 1 26 7 -16 -24 36
6 19 -1 -12 -22 25 -10 2
49 30 -66 66 2 32 -11 22
-13 54 -56 -46 100 32 -38 7
-52 -34 -16 -28 38 -6 52 -23
-21 23 69 89 36 -43 -20 -40
5 -18 7 42 -37 50 111 19
-4 -33 -6 18 -24 -45 -62 47
16 -40 -21 -3 23 -30 -2 7
27 -10 3 -12 17 11 68 37
-34 43 109 19 3 -42 14 38
62 15 -46 -14 6 11 -30 50
-16 -2 18 -30 5 -11 -73 -28
36 -4 -21 8 -3 -32 -36 16
11 21 4 34 -3 5 15 38
12 27 -5 16 38 9 -18 63
-30 52 -29 -36 -23 38 -45 -12

model/fire5/expand3x3/Conv2D i1 [128, 3, 3, 32]
00000000: 2fff eefe 0504 0311 03f3 fe0b 05f9 09ff
00000010: 1d05 defd f818 ec00 11ed 1efd 0a0d f8ef
00000020: 7f08 ec19 f73e c62d 40f7 22f5 0fd5 f916
00000030: 12dc eff2 f40e fdfa 19ef 57d2 d8ed f599
00000040: 0c0d fa0c 04fe f400 0310 ecf5 2000 0b20
00000050: f912 de04 0800 eae9 08fd 19e5 1106 e6fc
00000060: fc03 11f5 0fd5 030a f5f6 e409 cc04 f6f8
00000070: 12f2 ede6 ef10 ed03 f3f8 e30d 0af7 02fa
00000080: cf20 4c0d 0b06 d70a 06fa e119 0e1b c5f8
00000090: c4e1 ed47 0a0c 0dc9 0c03 ca04 f7da f4f8
000000a0: ddfc fde7 fed0 0809 02fd fcfb 220b 080e
000000b0: f915 f0e1 f5bc f5fc fe00 010e 000e 0c28
000000c0: e4e8 f9ff cdef ff03 ec05 1bfb d7f2 0d10
000000d0: fffb 0fe7 f805 0dff f514 f707 1b05 fb0b
000000e0: a8e9 1701 f9dd 1ee0 e908 f9fe 0609 fb0f
000000f0: e7ff ef02 160d 12e3 f510 bc2e 2208 fd44
47 -1 -18 -2 5 4 3 17
3 -13 -2 11 5 -7 9 -1
29 5 -34 -3 -8 24 -20 0
17 -19 30 -3 10 13 -8 -17
127 8 -20 25 -9 62 -58 45
64 -9 34 -11 15 -43 -7 22
18 -36 -17 -14 -12 14 -3 -6
25 -17 87 -46 -40 -19 -11 -103
12 13 -6 12 4 -2 -12 0
3 16 -20 -11 32 0 11 32
-7 18 -34 4 8 0 -22 -23
8 -3 25 -27 17 6 -26 -4
-4 3 17 -11 15 -43 3 10
-11 -10 -28 9 -52 4 -10 -8
18 -14 -19 -26 -17 16 -19 3
-13 -8 -29 13 10 -9 2 -6
-49 32 76 13 11 6 -41 10
6 -6 -31 25 14 27 -59 -8
-60 -31 -19 71 10 12 13 -55
12 3 -54 4 -9 -38 -12 -8
-35 -4 -3 -25 -2 -48 8 9
2 -3 -4 -5 34 11 8 14
-7 21 -16 -31 -11 -68 -11 -4
-2 0 1 14 0 14 12 40
-28 -24 -7 -1 -51 -17 -1 3
-20 5 27 -5 -41 -14 13 16
-1 -5 15 -25 -8 5 13 -1
-11 20 -9 7 27 5 -5 11
-88 -23 23 1 -7 -35 30 -32
-23 8 -7 -2 6 9 -5 15
-25 -1 -17 2 22 13 18 -29
-11 16 -68 46 34 8 -3 68

model/fire5/expand1x1/Conv2D i1 [128, 1, 1, 32]
00000000: 6da7 e639 b6ec c406 4be7 3d0e 81fb 2fe0
00000010: a2ed 4bec e697 5a49 6f20 f2f2 0dd6 08c2
00000020: 05f1 112d 05cc f1f4 070a 060a 58e4 03d3
00000030: 81f4 f3f6 d7ea 1bf7 08f6 4417 ed0e 15da
00000040: fbd8 c0fd c7fa c1de 1617 4cff 1208 dffd
00000050: e928 2821 28fe fb37 e4f0 e2b8 eeb4 7fcd
00000060: 18eb f706 ebf0 0ad2 f3dc ed07 0c11 014b
00000070: ce7f f21f 35ba f5fb f5e2 cade 25d3 ff1a
00000080: fefe eb15 20f5 01de 0cf2 f02c f2b8 ce7f
00000090: f80d ec0a b5f2 fd16 0ffd 1af9 01e7 40e5
000000a0: f5b5 8e1d b9ab 70f6 7f9d fad4 28d4 271e
000000b0: 2dfa feef 21f3 2431 a3be 200f db19 3a18
000000c0: dfd2 0d21 0903 74ec 15fb 080d 3111 d348
000000d0: 1f2b d709 de05 d61d 8101 0ee9 d2cd 2110
000000e0: e3d7 cb38 ccab e6db 53fb f450 d706 e87f
000000f0: f517 e508 e9f8 da02 3b19 0ce0 a5e4 2002
109 -89 -26 57 -74 -20 -60 6
75 -25 61 14 -127 -5 47 -32
-94 -19 75 -20 -26 -105 90 73
111 32 -14 -14 13 -42 8 -62
5 -15 17 45 5 -52 -15 -12
7 10 6 10 88 -28 3 -45
-127 -12 -13 -10 -41 -22 27 -9
8 -10 68 23 -19 14 21 -38
-5 -40 -64 -3 -57 -6 -63 -34
22 23 76 -1 18 8 -33 -3
-23 40 40 33 40 -2 -5 55
-28 -16 -30 -72 -18 -76 127 -51
24 -21 -9 6 -21 -16 10 -46
-13 -36 -19 7 12 17 1 75
-50 127 -14 31 53 -70 -11 -5
-11 -30 -54 -34 37 -45 -1 26
-2 -2 -21 21 32 -11 1 -34
12 -14 -16 44 -14 -72 -50 127
-8 13 -20 10 -75 -14 -3 22
15 -3 26 -7 1 -25 64 -27
-11 -75 -114 29 -71 -85 112 -10
127 -99 -6 -44 40 -44 39 30
45 -6 -2 -17 33 -13 36 49
-93 -66 32 15 -37 25 58 24
-33 -46 13 33 9 3 116 -20
21 -5 8 13 49 17 -45 72
31 43 -41 9 -34 5 -42 29
-127 1 14 -23 -46 -51 33 16
-29 -41 -53 56 -52 -85 -26 -37
83 -5 -12 80 -41 6 -24 127
-11 23 -27 8 -23 -8 -38 2
59 25 12 -32 -91 -28 32 2

model/fire5/squeeze1x1/Conv2D i1 [32, 1, 1, 256]
00000000: f51c dd01 f2db f73c 05d8 b600 f6ee c3ec
00000010: eb05 09ed f641 daf9 1d4f e4e6 510c 00fa
00000020: f61d 24fb ea03 2107 fd05 f7d6 06cd d8e0
00000030: e307 e001 d310 ece8 eee8 eefc 1f2f f5e6
00000040: f9da f209 30fc e1e7 eff4 f9fa f403 35ed
00000050: 063c f11d fff5 0eec cf2e 16e8 dbe0 0fe6
00000060: 22f5 1a08 d812 f3f2 16ee ff24 2400 fc10
00000070: 117f f72e 1ae0 1f05 f403 c5df ed0a 4d04
00000080: 09e7 f60d 150a f822 14ff 0218 25e5 14e8
00000090: f5f2 ef04 d1f9 03f9 270d dd26 f71c f013
000000a0: fdfb 0010 c514 2401 f9ff fce6 f01d f433
000000b0: effd caf2 3240 091d f3fb f5f0 2511 140c
000000c0: f8fd e10d 14f8 eff5 2dfe d708 fe0e fe11
000000d0: df1b 04d8 fbff dc10 39fd f508 17d8 ebec
000000e0: e61f 0f02 0407 1505 26de 0bf9 23f1 eb0d
000000f0: f929 eef8 f5fa 0012 17f0 21f8 14fa edf7
-11 28 -35 1 -14 -37 -9 60
5 -40 -74 0 -10 -18 -61 -20
-21 5 9 -19 -10 65 -38 -7
29 79 -28 -26 81 12 0 -6
-10 29 36 -5 -22 3 33 7
-3 5 -9 -42 6 -51 -40 -32
-29 7 -32 1 -45 16 -20 -24
-18 -24 -18 -4 31 47 -11 -26
-7 -38 -14 9 48 -4 -31 -25
-17 -12 -7 -6 -12 3 53 -19
6 60 -15 29 -1 -11 14 -20
-49 46 22 -24 -37 -32 15 -26
34 -11 26 8 -40 18 -13 -14
22 -18 -1 36 36 0 -4 16
17 127 -9 46 26 -32 31 5
-12 3 -59 -33 -19 10 77 4
9 -25 -10 13 21 10 -8 34
20 -1 2 24 37 -27 20 -24
-11 -14 -17 4 -47 -7 3 -7
39 13 -35 38 -9 28 -16 19
-3 -5 0 16 -59 20 36 1
-7 -1 -4 -26 -16 29 -12 51
-17 -3 -54 -14 50 64 9 29
-13 -5 -11 -16 37 17 20 12
-8 -3 -31 13 20 -8 -17 -11
45 -2 -41 8 -2 14 -2 17
-33 27 4 -40 -5 -1 -36 16
57 -3 -11 8 23 -40 -21 -20
-26 31 15 2 4 7 21 5
38 -34 11 -7 35 -15 -21 13
-7 41 -18 -8 -11 -6 0 18
23 -16 33 -8 20 -6 -19 -9

model/fire4/expand3x3/Conv2D i1 [128, 3, 3, 32]
00000000: 06ed 1df4 070a 051e f8dd 1d14 fcaa faf8
00000010: 2008 f610 0314 e847 02f3 02fe ebe4 fb0a
00000020: f039 1d02 2217 fc24 09f0 1f07 f785 00ea
00000030: 06fb f028 0414 fc19 cefd 0e0f 10e9 f815
00000040: fb23 09f7 1209 fe1d 0c08 0a09 efb1 fc14
00000050: 0a11 1714 fb14 fb21 e00b 0411 ffe6 e620
00000060: 0b08 fd06 12e1 fde3 02fc fe0b 0aeb ea06
00000070: 05de 06f8 000c f520 33fc f2f8 eafd 03fa
00000080: ec50 fa09 f2e0 eee3 0c06 f1f3 f4f6 07e0
00000090: e1ca ff09 ddf5 09dc f8ee f012 2609 fef7
000000a0: f52b f301 de0d db11 200a e1f9 f81c 0efc
000000b0: fcfb 10ed f5fd 0ecf e6fb fffc 0301 f300
000000c0: 12f1 fd04 0ada f1c5 01ee 09e6 1334 0327
000000d0: ddfe 0b00 0ef8 0101 3a04 fb06 070b f5ec
000000e0: 04f1 fefe efe8 f5c5 fe01 dfd8 0a7f 2201
000000f0: eef4 21e8 f9e0 fed0 1300 f502 0820 fbed
6 -19 29 -12 7 10 5 30
-8 -35 29 20 -4 -86 -6 -8
32 8 -10 16 3 20 -24 71
2 -13 2 -2 -21 -28 -5 10
-16 57 29 2 34 23 -4 36
9 -16 31 7 -9 -123 0 -22
6 -5 -16 40 4 20 -4 25
-50 -3 14 15 16 -23 -8 21
-5 35 9 -9 18 9 -2 29
12 8 10 9 -17 -79 -4 20
10 17 23 20 -5 20 -5 33
-32 11 4 17 -1 -26 -26 32
11 8 -3 6 18 -31 -3 -29
2 -4 -2 11 10 -21 -22 6
5 -34 6 -8 0 12 -11 32
51 -4 -14 -8 -22 -3 3 -6
-20 80 -6 9 -14 -32 -18 -29
12 6 -15 -13 -12 -10 7 -32
-31 -54 -1 9 -35 -11 9 -36
-8 -18 -16 18 38 9 -2 -9
-11 43 -13 1 -34 13 -37 17
32 10 -31 -7 -8 28 14 -4
-4 -5 16 -19 -11 -3 14 -49
-26 -5 -1 -4 3 1 -13 0
18 -15 -3 4 10 -38 -15 -59
1 -18 9 -26 19 52 3 39
-35 -2 11 0 14 -8 1 1
58 4 -5 6 7 11 -11 -20
4 -15 -2 -2 -17 -24 -11 -59
-2 1 -33 -40 10 127 34 1
-18 -12 33 -24 -7 -32 -2 -48
19 0 -11 2 8 32 -5 -19

model/fire4/expand1x1/Conv2D i1 [128, 1, 1, 32]
00000000: 10e2 e4af 8c4d 4a0e da05 19be 2401 09cd
00000010: e0cb 7fcc 7c8e 3ae1 456e 00ce 1d3a f1f7
00000020: 3af4 5981 0cdc 00fb e503 ba0b 3405 3a0d
00000030: 5325 ecc9 edbf be27 0e00 dff5 e0ee 9fd7
00000040: faf5 001d 3007 19ee f8cb 0e0d b8b3 ab26
00000050: 971d b401 c712 011e d309 1127 edb9 7f31
00000060: 3e06 ada5 0b03 05fc ff06 20d8 02f5 eb00
00000070: 2d17 0e2a 0534 0327 12df e0f1 03cf 057f
00000080: b1b4 7ffd 20e9 1c12 e700 1508 0dfa 5008
00000090: e9d9 ecb2 3959 c4ba ef15 369d d6e5 9eef
000000a0: 5e32 7f9a e7ce e914 03f3 7bd3 ef29 1820
000000b0: a5dd 1518 293b ed66 b7d4 cd9f 51c6 d9ff
000000c0: f720 e722 96c3 2220 1350 2513 a1e7 db1c
000000d0: fb04 3a0f a16e beb2 8965 0356 4bda 7f05
000000e0: 091a d440 bed6 1064 8124 d3f2 0b4b 3530
000000f0: 0bf2 11ea 9fa7 ca19 e314 0944 51ce cbec
16 -30 -28 -81 -116 77 74 14
-38 5 25 -66 36 1 9 -51
-32 -53 127 -52 124 -114 58 -31
69 110 0 -50 29 58 -15 -9
58 -12 89 -127 12 -36 0 -5
-27 3 -70 11 52 5 58 13
83 37 -20 -55 -19 -65 -66 39
14 0 -33 -11 -32 -18 -97 -41
-6 -11 0 29 48 7 25 -18
-8 -53 14 13 -72 -77 -85 38
-105 29 -76 1 -57 18 1 30
-45 9 17 39 -19 -71 127 49
62 6 -83 -91 11 3 5 -4
-1 6 32 -40 2 -11 -21 0
45 23 14 42 5 52 3 39
18 -33 -32 -15 3 -49 5 127
-79 -76 127 -3 32 -23 28 18
-25 0 21 8 13 -6 80 8
-23 -39 -20 -78 57 89 -60 -70
-17 21 54 -99 -42 -27 -98 -17
94 50 127 -102 -25 -50 -23 20
3 -13 123 -45 -17 41 24 32
-91 -35 21 24 41 59 -19 102
-73 -44 -51 -97 81 -58 -39 -1
-9 32 -25 34 -106 -61 34 32
19 80 37 19 -95 -25 -37 28
-5 4 58 15 -95 110 -66 -78
-119 101 3 86 75 -38 127 5
9 26 -44 64 -66 -42 16 100
-127 36 -45 -14 11 75 53 48
11 -14 17 -22 -97 -89 -54 25
-29 20 9 68 81 -50 -53 -20

model/fire4/squeeze1x1/Conv2D i1 [32, 1, 1, 128]
00000000: 14f7 2ce9 06fe 1622 04ea 67fc e2f2 b2ef
00000010: 3ae6 0ecc ca0b 03d2 ece5 317f f84d 1b00
00000020: ddb7 04e7 0511 cd2e 55ec 070f d6fd f909
00000030: 10f7 03f1 f709 dc33 fe00 0bf8 edf6 dcf0
00000040: f5f9 effa f3f1 f70a f5f3 edfa f103 fa00
00000050: fb08 0405 f1f9 fd13 eaf9 ef02 06ee 1010
00000060: 09e6 0af4 fefb 0a14 01f3 0236 d3f9 ff01
00000070: 27eb fc18 f4fd 1907 0125 ebf7 edfc 0ff1
00000080: 0611 ece2 ffc1 fcd3 f0c8 09e7 5809 fbee
00000090: f604 fdf2 e42f 3708 2206 272d 05da 42fa
000000a0: fff7 304b 11d6 f31b 09da df1b bd0b 3fdc
000000b0: f90b 9e27 fdee c706 e7ec 1dfc ee17 04f3
000000c0: 0fcf 186c 0ae2 4007 0225 7fd7 36c8 1020
000000d0: f256 f413 09f3 e80f 42e2 36ec 0b56 dc05
000000e0: fabd dfb7 54a7 dc12 1124 1f4d 1813 e811
000000f0: 2be6 d201 db20 fcd8 1609 3600 f217 ff05
20 -9 44 -23 6 -2 22 34
4 -22 103 -4 -30 -14 -78 -17
58 -26 14 -52 -54 11 3 -46
-20 -27 49 127 -8 77 27 0
-35 -73 4 -25 5 17 -51 46
85 -20 7 15 -42 -3 -7 9
16 -9 3 -15 -9 9 -36 51
-2 0 11 -8 -19 -10 -36 -16
-11 -7 -17 -6 -13 -15 -9 10
-11 -13 -19 -6 -15 3 -6 0
-5 8 4 5 -15 -7 -3 19
-22 -7 -17 2 6 -18 16 16
9 -26 10 -12 -2 -5 10 20
1 -13 2 54 -45 -7 -1 1
39 -21 -4 24 -12 -3 25 7
1 37 -21 -9 -19 -4 15 -15
6 17 -20 -30 -1 -63 -4 -45
-16 -56 9 -25 88 9 -5 -18
-10 4 -3 -14 -28 47 55 8
34 6 39 45 5 -38 66 -6
-1 -9 48 75 17 -42 -13 27
9 -38 -33 27 -67 11 63 -36
-7 11 -98 39 -3 -18 -57 6
-25 -20 29 -4 -18 23 4 -13
15 -49 24 108 10 -30 64 7
2 37 127 -41 54 -56 16 32
-14 86 -12 19 9 -13 -24 15
66 -30 54 -20 11 86 -36 5
-6 -67 -33 -73 84 -89 -36 18
17 36 31 77 24 19 -24 17
43 -26 -46 1 -37 32 -4 -40
22 9 54 0 -14 23 -1 5

model/fire3/expand3x3/Conv2D i1 [64, 3, 3, 16]
00000000: ec1d ff0d 29df cf0c 1cea edee eaf3 16d0
00000010: eb89 b3fa 2b3a 7c1d daff 21f3 0205 1fe3
00000020: 2320 12ee ad0c 1af1 eef8 0906 2407 f235
00000030: 117f 1e06 d1f5 a8eb f50f ef15 13fc e613
00000040: f121 0b16 39b1 c10f 35ff d6ef b103 08d0
00000050: f387 b9e6 1c39 770b fcfa 1302 07f1 10f5
00000060: 0ce8 eaf1 0f20 3ffd e318 161a 2908 e121
00000070: 147c 1a18 dadc 8feb fd09 e4ed fa02 fe0f
00000080: e9df e401 30dd dd0d 21f7 e7ec e3f8 0bd9
00000090: fb06 0f0c efec 1ff7 1df2 ebd8 f936 f9ff
000000a0: eb06 ee2d ef04 3bf9 1ffd bbef fb3b fde3
000000b0: fc01 100d fcdf 1cfc 11f7 020c 0d08 f903
000000c0: 03f5 0cd6 1ef6 c90e cef4 263a fca5 0afd
000000d0: ffe9 ffa5 2003 b90a cef6 562d 0381 1b14
000000e0: 02ee f5dd 1206 ba0c e3ff 3159 09b3 02f5
000000f0: f703 0902 f0f3 1bf2 0a01 e3e7 fd20 f10d
-20 29 -1 13 41 -33 -49 12
28 -22 -19 -18 -22 -13 22 -48
-21 -119 -77 -6 43 58 124 29
-38 -1 33 -13 2 5 31 -29
35 32 18 -18 -83 12 26 -15
-18 -8 9 6 36 7 -14 53
17 127 30 6 -47 -11 -88 -21
-11 15 -17 21 19 -4 -26 19
-15 33 11 22 57 -79 -63 15
53 -1 -42 -17 -79 3 8 -48
-13 -121 -71 -26 28 57 119 11
-4 -6 19 2 7 -15 16 -11
12 -24 -22 -15 15 32 63 -3
-29 24 22 26 41 8 -31 33
20 124 26 24 -38 -36 -113 -21
-3 9 -28 -19 -6 2 -2 15
-23 -33 -28 1 48 -35 -35 13
33 -9 -25 -20 -29 -8 11 -39
-5 6 15 12 -17 -20 31 -9
29 -14 -21 -40 -7 54 -7 -1
-21 6 -18 45 -17 4 59 -7
31 -3 -69 -17 -5 59 -3 -29
-4 1 16 13 -4 -33 28 -4
17 -9 2 12 13 8 -7 3
3 -11 12 -42 30 -10 -55 14
-50 -12 38 58 -4 -91 10 -3
-1 -23 -1 -91 32 3 -71 10
-50 -10 86 45 3 -127 27 20
2 -18 -11 -35 18 6 -70 12
-29 -1 49 89 9 -77 2 -11
-9 3 9 2 -16 -13 27 -14
10 1 -29 -25 -3 32 -15 13

model/fire3/expand1x1/Conv2D i1 [64, 1, 1, 16]
00000000: da53 c45e 815a e235 e9e2 f0e7 f2cd ef47
00000010: feee 8504 de18 d507 ffff cf01 7ffa d7f9
00000020: e5c8 a50e 167f cb5b 2edf e71d 1fe2 c9c2
00000030: f2ce f27f d004 2bf5 28f0 cad7 dedb d717
00000040: 00e7 ab18 fa04 0a1d 04f9 197f b1b5 4ccb
00000050: feea ca43 150e 7f12 38da baee 1cfe 1590
00000060: 2ef9 18e3 df04 ce37 392a afae 1a7f b9f4
00000070: fed5 20e8 7f15 dcf8 03fc e80b ff02 0311
00000080: 1dfd b818 1832 c60b 03fe 1792 7f56 87c0
00000090: a839 ed6c 8101 3ac7 26d9 e719 2029 08b2
000000a0: 01f2 fcfb 04ff ff7f 0302 0301 fe02 00fb
000000b0: 09ff f9f9 fb1d e1f5 f4f9 f50c b1c0 7f09
000000c0: 0b00 f1fc 01e3 f6fe f9ff 0cff 09f9 0b7f
000000d0: ec8e 8155 5f35 e7e7 270d c1f4 eed9 e62f
000000e0: 70c3 d425 fc38 cf81 0c6b f611 2219 1f21
000000f0: f414 b3de ecda 69ee 0a00 b1fc a305 7fd9
-38 83 -60 94 -127 90 -30 53
-23 -30 -16 -25 -14 -51 -17 71
-2 -18 -123 4 -34 24 -43 7
-1 -1 -49 1 127 -6 -41 -7
-27 -56 -91 14 22 127 -53 91
46 -33 -25 29 31 -30 -55 -62
-14 -50 -14 127 -48 4 43 -11
40 -16 -54 -41 -34 -37 -41 23
0 -25 -85 24 -6 4 10 29
4 -7 25 127 -79 -75 76 -53
-2 -22 -54 67 21 14 127 18
56 -38 -70 -18 28 -2 21 -112
46 -7 24 -29 -33 4 -50 55
57 42 -81 -82 26 127 -71 -12
-2 -43 32 -24 127 21 -36 -8
3 -4 -24 11 -1 2 3 17
29 -3 -72 24 24 50 -58 11
3 -2 23 -110 127 86 -121 -64
-88 57 -19 108 -127 1 58 -57
38 -39 -25 25 32 41 8 -78
1 -14 -4 -5 4 -1 -1 127
3 2 3 1 -2 2 0 -5
9 -1 -7 -7 -5 29 -31 -11
-12 -7 -11 12 -79 -64 127 9
11 0 -15 -4 1 -29 -10 -2
-7 -1 12 -1 9 -7 11 127
-20 -114 -127 85 95 53 -25 -25
39 13 -63 -12 -18 -39 -26 47
112 -61 -44 37 -4 56 -49 -127
12 107 -10 17 34 25 31 33
-12 20 -77 -34 -20 -38 105 -18
10 0 -79 -4 -93 5 127 -39

model/fire3/squeeze1x1/Conv2D i1 [16, 1, 1, 128]
00000000: e717 ebe8 ff0c f0bc 225c e8ea c305 18f2
00000010: a390 2f29 3de5 4657 18d7 e5ec f085 5d70
00000020: ed60 fe11 ecd0 fc3f ef18 d20c ec26 3eb7
00000030: f1fb d32d e87f e5fe 1cdc cf10 ec27 d5ec
00000040: 1ef2 20e0 06fa e5ea 1510 4d12 0df8 02ec
00000050: d507 08da f8eb fce1 fcec ed34 bd51 fce2
00000060: faf9 0c03 e7eb e50c 0dfb e8ee e937 fdf7
00000070: 0dc3 1dfe f3df 12f6 240d 07f8 f2f2 d909
00000080: e316 fcf8 ff14 dd0a 110d e308 1c0d efec
00000090: fd0e 240a 17e1 dadd 4012 2704 eb27 210b
000000a0: 0c12 09cd d604 4f02 e911 f308 eff9 16f8
000000b0: 0bf0 e9ee c014 fd0c f4cb 117f 091c 0ae4
000000c0: f303 ca04 f8f3 d5f2 ef18 4b35 ebeb 0ef2
000000d0: f219 e2e3 03f6 0abb fff7 09df 2e2d df02
000000e0: efdf 00f9 fdef 0304 1605 0bed f907 2efb
000000f0: 03f7 2126 f3dc e108 03db 0314 00f1 f224
-25 23 -21 -24 -1 12 -16 -68
34 92 -24 -22 -61 5 24 -14
-93 -112 47 41 61 -27 70 87
24 -41 -27 -20 -16 -123 93 112
-19 96 -2 17 -20 -48 -4 63
-17 24 -46 12 -20 38 62 -73
-15 -5 -45 45 -24 127 -27 -2
28 -36 -49 16 -20 39 -43 -20
30 -14 32 -32 6 -6 -27 -22
21 16 77 18 13 -8 2 -20
-43 7 8 -38 -8 -21 -4 -31
-4 -20 -19 52 -67 81 -4 -30
-6 -7 12 3 -25 -21 -27 12
13 -5 -24 -18 -23 55 -3 -9
13 -61 29 -2 -13 -33 18 -10
36 13 7 -8 -14 -14 -39 9
-29 22 -4 -8 -1 20 -35 10
17 13 -29 8 28 13 -17 -20
-3 14 36 10 23 -31 -38 -35
64 18 39 4 -21 39 33 11
12 18 9 -51 -42 4 79 2
-23 17 -13 8 -17 -7 22 -8
11 -16 -23 -18 -64 20 -3 12
-12 -53 17 127 9 28 10 -28
-13 3 -54 4 -8 -13 -43 -14
-17 24 75 53 -21 -21 14 -14
-14 25 -30 -29 3 -10 10 -69
-1 -9 9 -33 46 45 -33 2
-17 -33 0 -7 -3 -17 3 4
22 5 11 -19 -7 7 46 -5
3 -9 33 38 -13 -36 -31 8
3 -37 3 20 0 -15 -14 36

model/fire2/expand3x3/Conv2D i1 [64, 3, 3, 16]
00000000: f50b faef 0906 1906 fe0b 1703 0af4 040a
00000010: f018 00e9 0d13 ea05 dcfb 12fd f509 031c
00000020: fe05 e6e1 060d 1206 0415 0923 05fa 100f
00000030: 0bfd d303 0004 0506 f7f7 0110 000b fa08
00000040: e809 00ff c7ea b8e0 87d2 ff81 def5 b0f3
00000050: 01f4 def9 f715 0efe 0804 f72a fd02 fded
00000060: 03fd e204 0af5 16f4 0219 0907 19f5 f602
00000070: 000c 000f 2004 f702 f91c 02f7 1a14 dd16
00000080: 0001 f9ff 1002 23f8 0e2f 0e23 19ff 040a
00000090: c3f8 0600 0d2d 18dd f72e 2610 1b1b fc14
000000a0: c6ec 2f0b df0c 20d0 e215 1356 0b04 1314
000000b0: d2fa 0d0c 0416 08ce e913 0815 1119 0519
000000c0: ca0d dd13 d205 fee5 e007 122b 020b eb12
000000d0: 81fe fcfe d6ae d8a1 bdad e321 c0ac a5c5
000000e0: d507 d60c e7fa ede5 d6f8 033a f30b ebf8
000000f0: c61f fe0d 0c2a 15dc ec3e 1c36 251d 0b1b
-11 11 -6 -17 9 6 25 6
-2 11 23 3 10 -12 4 10
-16 24 0 -23 13 19 -22 5
-36 -5 18 -3 -11 9 3 28
-2 5 -26 -31 6 13 18 6
4 21 9 35 5 -6 16 15
11 -3 -45 3 0 4 5 6
-9 -9 1 16 0 11 -6 8
-24 9 0 -1 -57 -22 -72 -32
-121 -46 -1 -127 -34 -11 -80 -13
1 -12 -34 -7 -9 21 14 -2
8 4 -9 42 -3 2 -3 -19
3 -3 -30 4 10 -11 22 -12
2 25 9 7 25 -11 -10 2
0 12 0 15 32 4 -9 2
-7 28 2 -9 26 20 -35 22
0 1 -7 -1 16 2 35 -8
14 47 14 35 25 -1 4 10
-61 -8 6 0 13 45 24 -35
-9 46 38 16 27 27 -4 20
-58 -20 47 11 -33 12 32 -48
-30 21 19 86 11 4 19 20
-46 -6 13 12 4 22 8 -50
-23 19 8 21 17 25 5 25
-54 13 -35 19 -46 5 -2 -27
-32 7 18 43 2 11 -21 18
-127 -2 -4 -2 -42 -82 -40 -95
-67 -83 -29 33 -64 -84 -91 -59
-43 7 -42 12 -25 -6 -19 -27
-42 -8 3 58 -13 11 -21 -8
-58 31 -2 13 12 42 21 -36
-20 62 28 54 37 29 11 27

model/fire2/expand1x1/Conv2D i1 [64, 1, 1, 16]
00000000: d5b5 7fba a300 fde9 6d09 e1ee 0a0a 3005
00000010: be7f f713 f92d 13cd 8a42 2618 eb13 9f2a
00000020: 0d06 f7f0 10d2 8124 1f28 051c 3013 11f8
00000030: 50c6 0f0a 8110 07a5 ff39 bce2 160b f758
00000040: ef24 eb1c 3300 e2e1 dedf 7fdf fade 0e9c
00000050: a81b fd21 ee15 1947 8122 0ede 1d12 a528
00000060: cf54 0481 ef08 04ea ae06 5b18 0eff 6ce0
00000070: fe0b f3f2 f4a1 35da ce01 1600 7f1e fa13
00000080: 43f0 e1e5 0a16 c581 2631 1afb 3714 1c3b
00000090: 1ef4 cde9 7f1d 0c0a a433 f734 0329 cf29
000000a0: a77f 0dd1 b8fc 1319 cf0c e60a 1902 2210
000000b0: 0d55 f24f f2fd fc26 de0c 0d81 0dfc e010
000000c0: 11fa e4d2 2cbf 41ff 2b19 2121 2481 0f3b
000000d0: edcd 7fe1 fe06 02a9 2a05 45c4 fd07 dbde
000000e0: db18 1702 04db e87f efcd ecff ea02 f1dc
000000f0: eac5 3de6 81fe 066a f85a 0fe6 0303 faeb
-43 -75 127 -70 -93 0 -3 -23
109 9 -31 -18 10 10 48 5
-66 127 -9 19 -7 45 19 -51
-118 66 38 24 -21 19 -97 42
13 6 -9 -16 16 -46 -127 36
31 40 5 28 48 19 17 -8
80 -58 15 10 -127 16 7 -91
-1 57 -68 -30 22 11 -9 88
-17 36 -21 28 51 0 -30 -31
-34 -33 127 -33 -6 -34 14 -100
-88 27 -3 33 -18 21 25 71
-127 34 14 -34 29 18 -91 40
-49 84 4 -127 -17 8 4 -22
-82 6 91 24 14 -1 108 -32
-2 11 -13 -14 -12 -95 53 -38
-50 1 22 0 127 30 -6 19
67 -16 -31 -27 10 22 -59 -127
38 49 26 -5 55 20 28 59
30 -12 -51 -23 127 29 12 10
-92 51 -9 52 3 41 -49 41
-89 127 13 -47 -72 -4 19 25
-49 12 -26 10 25 2 34 16
13 85 -14 79 -14 -3 -4 38
-34 12 13 -127 13 -4 -32 16
17 -6 -28 -46 44 -65 65 -1
43 25 33 33 36 -127 15 59
-19 -51 127 -31 -2 6 2 -87
42 5 69 -60 -3 7 -37 -34
-37 24 23 2 4 -37 -24 127
-17 -51 -20 -1 -22 2 -15 -36
-22 -59 61 -26 -127 -2 6 106
-8 90 15 -26 3 3 -6 -21

model/fire2/squeeze1x1/Conv2D i1 [16, 1, 1, 64]
00000000: 06ef 13f8 580b 0621 d405 c04d 0508 12c9
00000010: 35ea 35d0 5907 0df1 d262 0e4e f8f8 f0e2
00000020: b124 df3c 25c1 0c01 a1c5 24b7 af54 b016
00000030: 7121 0315 e8b1 cd39 f644 0a43 1c7f f7af
00000040: f010 f005 ee03 080d 0609 cdfb 0aff 2015
00000050: 03fd 0e0e d407 0d08 0000 0c12 0a0b 0b12
00000060: f20f 0106 0acb f501 0603 fee1 f008 0807
00000070: df81 0903 f3e5 141c 0f0d 00f6 18f2 1005
00000080: 2b23 2308 e415 0123 ccff 2edf 0613 34aa
00000090: 17ff 1603 0e01 18ea fce5 2be3 fe0d fabb
000000a0: f821 0e08 e032 fd02 f602 f702 f506 0e10
000000b0: f329 fd10 11f3 a59d 1603 1ae8 81e9 e9fa
000000c0: 810f 960b f8d1 0d1c 1317 d2e2 e40c 1114
000000d0: 0b03 0f07 090d 041b 01bd 1ee3 e6e6 fb18
000000e0: 0d19 0505 05df 0d0f da0d 181c 0505 190a
000000f0: 0b10 1712 fefc 0e17 0602 000d 0df2 12e4
6 -17 19 -8 88 11 6 33
-44 5 -64 77 5 8 18 -55
53 -22 53 -48 89 7 13 -15
-46 98 14 78 -8 -8 -16 -30
-79 36 -33 60 37 -63 12 1
-95 -59 36 -73 -81 84 -80 22
113 33 3 21 -24 -79 -51 57
-10 68 10 67 28 127 -9 -81
-16 16 -16 5 -18 3 8 13
6 9 -51 -5 10 -1 32 21
3 -3 14 14 -44 7 13 8
0 0 12 18 10 11 11 18
-14 15 1 6 10 -53 -11 1
6 3 -2 -31 -16 8 8 7
-33 -127 9 3 -13 -27 20 28
15 13 0 -10 24 -14 16 5
43 35 35 8 -28 21 1 35
-52 -1 46 -33 6 19 52 -86
23 -1 22 3 14 1 24 -22
-4 -27 43 -29 -2 13 -6 -69
-8 33 14 8 -32 50 -3 2
-10 2 -9 2 -11 6 14 16
-13 41 -3 16 17 -13 -91 -99
22 3 26 -24 -127 -23 -23 -6
-127 15 -106 11 -8 -47 13 28
19 23 -46 -30 -28 12 17 20
11 3 15 7 9 13 4 27
1 -67 30 -29 -26 -26 -5 24
13 25 5 5 5 -33 13 15
-38 13 24 28 5 5 25 10
11 16 23 18 -2 -4 14 23
6 2 0 13 13 -14 18 -28

model/conv1/Conv2D i1 [64, 3, 3, 3]
00000000: 3067 3b43 7f50 2657 3bed e4e3 e2cd d8ee
00000010: ddf2 f3d9 ebdd a9d2 dbac d6ff 0103 0005
00000020: 0200 ff03 eee0 0dfe 040d fe03 0192 81e1
00000030: faf8 1102 0106 1124 0116 2afa 0e1e ed1f
00000040: 2520 3752 3e29 432a c9a2 e0b2 81cd d2b3
00000050: e635 9731 3a8e 411b d30a 3b89 483a 814a
00000060: 21d2 0c30 c40e 28ca 0a13 10e7 2570 47f9
00000070: f6f4 d98b b80d 0c0f 092d 19f3 f1ee d781
00000080: a703 fafc 2973 55d8 f23c dffd 4bdc 0b4f
00000090: 0d29 3501 1026 e8ee fb1c dd81 26e6 8a32
000000a0: 11c1 0f0a f5d4 3bec f22d eddd 39e3 987f
000000b0: dcbc 5cdc ed2c e4bd 5edc db40 dbf3 0006
000000c0: 04f5 00f4 c9dc 010c 09ed f203 8681 9e00
000000d0: 0d03 f50b 03f2 03f3 df8c a41b 3d41 fc12
000000e0: 06db 81a1 2b71 65f6 06f4 fed9 e217 4f4b
000000f0: feff f2e5 dedd 2b33 35ee f0eb 364c 3ab5
48 103 59 67 127 80 38 87
59 -19 -28 -29 -30 -51 -40 -18
-35 -14 -13 -39 -21 -35 -87 -46
-37 -84 -42 -1 1 3 0 5
2 0 -1 3 -18 -32 13 -2
4 13 -2 3 1 -110 -127 -31
-6 -8 17 2 1 6 17 36
1 22 42 -6 14 30 -19 31
37 32 55 82 62 41 67 42
-55 -94 -32 -78 -127 -51 -46 -77
-26 53 -105 49 58 -114 65 27
-45 10 59 -119 72 58 -127 74
33 -46 12 48 -60 14 40 -54
10 19 16 -25 37 112 71 -7
-10 -12 -39 -117 -72 13 12 15
9 45 25 -13 -15 -18 -41 -127
-89 3 -6 -4 41 115 85 -40
-14 60 -33 -3 75 -36 11 79
13 41 53 1 16 38 -24 -18
-5 28 -35 -127 38 -26 -118 50
17 -63 15 10 -11 -44 59 -20
-14 45 -19 -35 57 -29 -104 127
-36 -68 92 -36 -19 44 -28 -67
94 -36 -37 64 -37 -13 0 6
4 -11 0 -12 -55 -36 1 12
9 -19 -14 3 -122 -127 -98 0
13 3 -11 11 3 -14 3 -13
-33 -116 -92 27 61 65 -4 18
6 -37 -127 -95 43 113 101 -10
6 -12 -2 -39 -30 23 79 75
-2 -1 -14 -27 -34 -35 43 51
53 -18 -16 -21 54 76 58 -75
